[2019-04-21 00:45:10,684 INFO]  * src vocab size = 256
[2019-04-21 00:45:10,685 INFO]  * tgt vocab size = 258
[2019-04-21 00:45:10,685 INFO] Building model...
[2019-04-21 00:45:13,528 INFO] NMTModel(
  (encoder): TransformerEncoder(
    (embeddings): Embeddings(
      (make_embedding): Sequential(
        (emb_luts): Elementwise(
          (0): Embedding(256, 200, padding_idx=1)
        )
      )
      (pe): PositionalEncoding(
        (dropout): Dropout(p=0.3)
      )
    )
    (transformer): ModuleList(
      (0): TransformerEncoderLayer(
        (self_attn): MultiHeadedAttention(
          (linear_keys): Linear(in_features=200, out_features=200, bias=True)
          (linear_values): Linear(in_features=200, out_features=200, bias=True)
          (linear_query): Linear(in_features=200, out_features=200, bias=True)
          (softmax): Softmax()
          (dropout): Dropout(p=0.3)
          (final_linear): Linear(in_features=200, out_features=200, bias=True)
        )
        (feed_forward): PositionwiseFeedForward(
          (w_1): Linear(in_features=200, out_features=2048, bias=True)
          (w_2): Linear(in_features=2048, out_features=200, bias=True)
          (layer_norm): LayerNorm(torch.Size([200]), eps=1e-06, elementwise_affine=True)
          (dropout_1): Dropout(p=0.3)
          (relu): ReLU()
          (dropout_2): Dropout(p=0.3)
        )
        (layer_norm): LayerNorm()
        (dropout): Dropout(p=0.3)
      )
      (1): TransformerEncoderLayer(
        (self_attn): MultiHeadedAttention(
          (linear_keys): Linear(in_features=200, out_features=200, bias=True)
          (linear_values): Linear(in_features=200, out_features=200, bias=True)
          (linear_query): Linear(in_features=200, out_features=200, bias=True)
          (softmax): Softmax()
          (dropout): Dropout(p=0.3)
          (final_linear): Linear(in_features=200, out_features=200, bias=True)
        )
        (feed_forward): PositionwiseFeedForward(
          (w_1): Linear(in_features=200, out_features=2048, bias=True)
          (w_2): Linear(in_features=2048, out_features=200, bias=True)
          (layer_norm): LayerNorm(torch.Size([200]), eps=1e-06, elementwise_affine=True)
          (dropout_1): Dropout(p=0.3)
          (relu): ReLU()
          (dropout_2): Dropout(p=0.3)
        )
        (layer_norm): LayerNorm()
        (dropout): Dropout(p=0.3)
      )
    )
    (layer_norm): LayerNorm(torch.Size([200]), eps=1e-06, elementwise_affine=True)
  )
  (decoder): TransformerDecoder(
    (embeddings): Embeddings(
      (make_embedding): Sequential(
        (emb_luts): Elementwise(
          (0): Embedding(258, 200, padding_idx=1)
        )
      )
      (pe): PositionalEncoding(
        (dropout): Dropout(p=0.3)
      )
    )
    (transformer_layers): ModuleList(
      (0): TransformerDecoderLayer(
        (self_attn): MultiHeadedAttention(
          (linear_keys): Linear(in_features=200, out_features=200, bias=True)
          (linear_values): Linear(in_features=200, out_features=200, bias=True)
          (linear_query): Linear(in_features=200, out_features=200, bias=True)
          (softmax): Softmax()
          (dropout): Dropout(p=0.3)
          (final_linear): Linear(in_features=200, out_features=200, bias=True)
        )
        (context_attn): MultiHeadedAttention(
          (linear_keys): Linear(in_features=200, out_features=200, bias=True)
          (linear_values): Linear(in_features=200, out_features=200, bias=True)
          (linear_query): Linear(in_features=200, out_features=200, bias=True)
          (softmax): Softmax()
          (dropout): Dropout(p=0.3)
          (final_linear): Linear(in_features=200, out_features=200, bias=True)
        )
        (feed_forward): PositionwiseFeedForward(
          (w_1): Linear(in_features=200, out_features=2048, bias=True)
          (w_2): Linear(in_features=2048, out_features=200, bias=True)
          (layer_norm): LayerNorm(torch.Size([200]), eps=1e-06, elementwise_affine=True)
          (dropout_1): Dropout(p=0.3)
          (relu): ReLU()
          (dropout_2): Dropout(p=0.3)
        )
        (layer_norm_1): LayerNorm(torch.Size([200]), eps=1e-06, elementwise_affine=True)
        (layer_norm_2): LayerNorm(torch.Size([200]), eps=1e-06, elementwise_affine=True)
        (drop): Dropout(p=0.3)
      )
      (1): TransformerDecoderLayer(
        (self_attn): MultiHeadedAttention(
          (linear_keys): Linear(in_features=200, out_features=200, bias=True)
          (linear_values): Linear(in_features=200, out_features=200, bias=True)
          (linear_query): Linear(in_features=200, out_features=200, bias=True)
          (softmax): Softmax()
          (dropout): Dropout(p=0.3)
          (final_linear): Linear(in_features=200, out_features=200, bias=True)
        )
        (context_attn): MultiHeadedAttention(
          (linear_keys): Linear(in_features=200, out_features=200, bias=True)
          (linear_values): Linear(in_features=200, out_features=200, bias=True)
          (linear_query): Linear(in_features=200, out_features=200, bias=True)
          (softmax): Softmax()
          (dropout): Dropout(p=0.3)
          (final_linear): Linear(in_features=200, out_features=200, bias=True)
        )
        (feed_forward): PositionwiseFeedForward(
          (w_1): Linear(in_features=200, out_features=2048, bias=True)
          (w_2): Linear(in_features=2048, out_features=200, bias=True)
          (layer_norm): LayerNorm(torch.Size([200]), eps=1e-06, elementwise_affine=True)
          (dropout_1): Dropout(p=0.3)
          (relu): ReLU()
          (dropout_2): Dropout(p=0.3)
        )
        (layer_norm_1): LayerNorm(torch.Size([200]), eps=1e-06, elementwise_affine=True)
        (layer_norm_2): LayerNorm(torch.Size([200]), eps=1e-06, elementwise_affine=True)
        (drop): Dropout(p=0.3)
      )
    )
    (layer_norm): LayerNorm(torch.Size([200]), eps=1e-06, elementwise_affine=True)
  )
  (generator): Sequential(
    (0): Linear(in_features=200, out_features=258, bias=True)
    (1): Cast()
    (2): LogSoftmax()
  )
)
[2019-04-21 00:45:13,530 INFO] encoder: 2017696
[2019-04-21 00:45:13,530 INFO] decoder: 2392354
[2019-04-21 00:45:13,530 INFO] * number of parameters: 4410050
[2019-04-21 00:45:13,531 INFO] Starting training on GPU: [0]
[2019-04-21 00:45:13,531 INFO] Start training loop and validate every 100 steps...
[2019-04-21 00:45:13,699 INFO] Loading dataset from IntrinsicTasks/Task3_Seq/Task3_Seq.train.0.pt, number of examples: 20000
…
