[2019-04-24 12:09:31,447 INFO]  * src vocab size = 256
[2019-04-24 12:09:31,447 INFO]  * tgt vocab size = 257
[2019-04-24 12:09:31,447 INFO] Building model...
[2019-04-24 12:09:34,449 INFO] NMTModel(
  (encoder): TransformerEncoder(
    (embeddings): Embeddings(
      (make_embedding): Sequential(
        (emb_luts): Elementwise(
          (0): Embedding(256, 200, padding_idx=1)
        )
      )
      (pe): PositionalEncoding(
        (dropout): Dropout(p=0.3)
      )
      (gpe): GornPositionalEncoding(
        (dropout): Dropout(p=0.3)
      )
    )
    (transformer): ModuleList(
      (0): TransformerEncoderLayer(
        (self_attn): MultiHeadedAttention(
          (linear_keys): Linear(in_features=200, out_features=200, bias=True)
          (linear_values): Linear(in_features=200, out_features=200, bias=True)
          (linear_query): Linear(in_features=200, out_features=200, bias=True)
          (softmax): Softmax()
          (dropout): Dropout(p=0.3)
          (final_linear): Linear(in_features=200, out_features=200, bias=True)
        )
        (feed_forward): PositionwiseFeedForward(
          (w_1): Linear(in_features=200, out_features=2048, bias=True)
          (w_2): Linear(in_features=2048, out_features=200, bias=True)
          (layer_norm): LayerNorm(torch.Size([200]), eps=1e-06, elementwise_affine=True)
          (dropout_1): Dropout(p=0.3)
          (relu): ReLU()
          (dropout_2): Dropout(p=0.3)
        )
        (layer_norm): LayerNorm()
        (dropout): Dropout(p=0.3)
      )
      (1): TransformerEncoderLayer(
        (self_attn): MultiHeadedAttention(
          (linear_keys): Linear(in_features=200, out_features=200, bias=True)
          (linear_values): Linear(in_features=200, out_features=200, bias=True)
          (linear_query): Linear(in_features=200, out_features=200, bias=True)
          (softmax): Softmax()
          (dropout): Dropout(p=0.3)
          (final_linear): Linear(in_features=200, out_features=200, bias=True)
        )
        (feed_forward): PositionwiseFeedForward(
          (w_1): Linear(in_features=200, out_features=2048, bias=True)
          (w_2): Linear(in_features=2048, out_features=200, bias=True)
          (layer_norm): LayerNorm(torch.Size([200]), eps=1e-06, elementwise_affine=True)
          (dropout_1): Dropout(p=0.3)
          (relu): ReLU()
          (dropout_2): Dropout(p=0.3)
        )
        (layer_norm): LayerNorm()
        (dropout): Dropout(p=0.3)
      )
    )
    (layer_norm): LayerNorm(torch.Size([200]), eps=1e-06, elementwise_affine=True)
  )
  (decoder): TransformerDecoder(
    (embeddings): Embeddings(
      (make_embedding): Sequential(
        (emb_luts): Elementwise(
          (0): Embedding(257, 200, padding_idx=1)
        )
      )
      (pe): PositionalEncoding(
        (dropout): Dropout(p=0.3)
      )
      (gpe): GornPositionalEncoding(
        (dropout): Dropout(p=0.3)
      )
    )
    (transformer_layers): ModuleList(
      (0): TransformerDecoderLayer(
        (self_attn): MultiHeadedAttention(
          (linear_keys): Linear(in_features=200, out_features=200, bias=True)
          (linear_values): Linear(in_features=200, out_features=200, bias=True)
          (linear_query): Linear(in_features=200, out_features=200, bias=True)
          (softmax): Softmax()
          (dropout): Dropout(p=0.3)
          (final_linear): Linear(in_features=200, out_features=200, bias=True)
        )
        (context_attn): MultiHeadedAttention(
          (linear_keys): Linear(in_features=200, out_features=200, bias=True)
          (linear_values): Linear(in_features=200, out_features=200, bias=True)
          (linear_query): Linear(in_features=200, out_features=200, bias=True)
          (softmax): Softmax()
          (dropout): Dropout(p=0.3)
          (final_linear): Linear(in_features=200, out_features=200, bias=True)
        )
        (feed_forward): PositionwiseFeedForward(
          (w_1): Linear(in_features=200, out_features=2048, bias=True)
          (w_2): Linear(in_features=2048, out_features=200, bias=True)
          (layer_norm): LayerNorm(torch.Size([200]), eps=1e-06, elementwise_affine=True)
          (dropout_1): Dropout(p=0.3)
          (relu): ReLU()
          (dropout_2): Dropout(p=0.3)
        )
        (layer_norm_1): LayerNorm(torch.Size([200]), eps=1e-06, elementwise_affine=True)
        (layer_norm_2): LayerNorm(torch.Size([200]), eps=1e-06, elementwise_affine=True)
        (drop): Dropout(p=0.3)
      )
      (1): TransformerDecoderLayer(
        (self_attn): MultiHeadedAttention(
          (linear_keys): Linear(in_features=200, out_features=200, bias=True)
          (linear_values): Linear(in_features=200, out_features=200, bias=True)
          (linear_query): Linear(in_features=200, out_features=200, bias=True)
          (softmax): Softmax()
          (dropout): Dropout(p=0.3)
          (final_linear): Linear(in_features=200, out_features=200, bias=True)
        )
        (context_attn): MultiHeadedAttention(
          (linear_keys): Linear(in_features=200, out_features=200, bias=True)
          (linear_values): Linear(in_features=200, out_features=200, bias=True)
          (linear_query): Linear(in_features=200, out_features=200, bias=True)
          (softmax): Softmax()
          (dropout): Dropout(p=0.3)
          (final_linear): Linear(in_features=200, out_features=200, bias=True)
        )
        (feed_forward): PositionwiseFeedForward(
          (w_1): Linear(in_features=200, out_features=2048, bias=True)
          (w_2): Linear(in_features=2048, out_features=200, bias=True)
          (layer_norm): LayerNorm(torch.Size([200]), eps=1e-06, elementwise_affine=True)
          (dropout_1): Dropout(p=0.3)
          (relu): ReLU()
          (dropout_2): Dropout(p=0.3)
        )
        (layer_norm_1): LayerNorm(torch.Size([200]), eps=1e-06, elementwise_affine=True)
        (layer_norm_2): LayerNorm(torch.Size([200]), eps=1e-06, elementwise_affine=True)
        (drop): Dropout(p=0.3)
      )
    )
    (layer_norm): LayerNorm(torch.Size([200]), eps=1e-06, elementwise_affine=True)
  )
  (generator): Sequential(
    (0): Linear(in_features=200, out_features=257, bias=True)
    (1): Cast()
    (2): LogSoftmax()
  )
)
[2019-04-24 12:09:34,450 INFO] encoder: 2017696
[2019-04-24 12:09:34,450 INFO] decoder: 2391953
[2019-04-24 12:09:34,450 INFO] * number of parameters: 4409649
[2019-04-24 12:09:34,452 INFO] Starting training on GPU: [0]
[2019-04-24 12:09:34,452 INFO] Start training loop and validate every 100 steps...
[2019-04-24 12:09:34,933 INFO] Loading dataset from IntrinsicTasks/Task4_DFS/Task4_DFS.train.0.pt, number of examples: 43886
…
