[2019-04-28 18:44:36,829 INFO]  * src vocab size = 257
[2019-04-28 18:44:36,829 INFO]  * tgt vocab size = 259
[2019-04-28 18:44:36,831 INFO] Building model...
[2019-04-28 18:44:39,542 INFO] NMTModel(
  (encoder): TransformerEncoder(
    (embeddings): Embeddings(
      (make_embedding): Sequential(
        (emb_luts): Elementwise(
          (0): Embedding(257, 40, padding_idx=1)
        )
      )
      (pe): PositionalEncoding(
        (dropout): Dropout(p=0.3)
      )
    )
    (transformer): ModuleList(
      (0): TransformerEncoderLayer(
        (self_attn): MultiHeadedAttention(
          (linear_keys): Linear(in_features=40, out_features=40, bias=True)
          (linear_values): Linear(in_features=40, out_features=40, bias=True)
          (linear_query): Linear(in_features=40, out_features=40, bias=True)
          (softmax): Softmax()
          (dropout): Dropout(p=0.3)
          (final_linear): Linear(in_features=40, out_features=40, bias=True)
        )
        (feed_forward): PositionwiseFeedForward(
          (w_1): Linear(in_features=40, out_features=2048, bias=True)
          (w_2): Linear(in_features=2048, out_features=40, bias=True)
          (layer_norm): LayerNorm(torch.Size([40]), eps=1e-06, elementwise_affine=True)
          (dropout_1): Dropout(p=0.3)
          (relu): ReLU()
          (dropout_2): Dropout(p=0.3)
        )
        (layer_norm): LayerNorm(torch.Size([40]), eps=1e-06, elementwise_affine=True)
        (dropout): Dropout(p=0.3)
      )
      (1): TransformerEncoderLayer(
        (self_attn): MultiHeadedAttention(
          (linear_keys): Linear(in_features=40, out_features=40, bias=True)
          (linear_values): Linear(in_features=40, out_features=40, bias=True)
          (linear_query): Linear(in_features=40, out_features=40, bias=True)
          (softmax): Softmax()
          (dropout): Dropout(p=0.3)
          (final_linear): Linear(in_features=40, out_features=40, bias=True)
        )
        (feed_forward): PositionwiseFeedForward(
          (w_1): Linear(in_features=40, out_features=2048, bias=True)
          (w_2): Linear(in_features=2048, out_features=40, bias=True)
          (layer_norm): LayerNorm(torch.Size([40]), eps=1e-06, elementwise_affine=True)
          (dropout_1): Dropout(p=0.3)
          (relu): ReLU()
          (dropout_2): Dropout(p=0.3)
        )
        (layer_norm): LayerNorm(torch.Size([40]), eps=1e-06, elementwise_affine=True)
        (dropout): Dropout(p=0.3)
      )
      (2): TransformerEncoderLayer(
        (self_attn): MultiHeadedAttention(
          (linear_keys): Linear(in_features=40, out_features=40, bias=True)
          (linear_values): Linear(in_features=40, out_features=40, bias=True)
          (linear_query): Linear(in_features=40, out_features=40, bias=True)
          (softmax): Softmax()
          (dropout): Dropout(p=0.3)
          (final_linear): Linear(in_features=40, out_features=40, bias=True)
        )
        (feed_forward): PositionwiseFeedForward(
          (w_1): Linear(in_features=40, out_features=2048, bias=True)
          (w_2): Linear(in_features=2048, out_features=40, bias=True)
          (layer_norm): LayerNorm(torch.Size([40]), eps=1e-06, elementwise_affine=True)
          (dropout_1): Dropout(p=0.3)
          (relu): ReLU()
          (dropout_2): Dropout(p=0.3)
        )
        (layer_norm): LayerNorm(torch.Size([40]), eps=1e-06, elementwise_affine=True)
        (dropout): Dropout(p=0.3)
      )
      (3): TransformerEncoderLayer(
        (self_attn): MultiHeadedAttention(
          (linear_keys): Linear(in_features=40, out_features=40, bias=True)
          (linear_values): Linear(in_features=40, out_features=40, bias=True)
          (linear_query): Linear(in_features=40, out_features=40, bias=True)
          (softmax): Softmax()
          (dropout): Dropout(p=0.3)
          (final_linear): Linear(in_features=40, out_features=40, bias=True)
        )
        (feed_forward): PositionwiseFeedForward(
          (w_1): Linear(in_features=40, out_features=2048, bias=True)
          (w_2): Linear(in_features=2048, out_features=40, bias=True)
          (layer_norm): LayerNorm(torch.Size([40]), eps=1e-06, elementwise_affine=True)
          (dropout_1): Dropout(p=0.3)
          (relu): ReLU()
          (dropout_2): Dropout(p=0.3)
        )
        (layer_norm): LayerNorm(torch.Size([40]), eps=1e-06, elementwise_affine=True)
        (dropout): Dropout(p=0.3)
      )
    )
    (layer_norm): LayerNorm(torch.Size([40]), eps=1e-06, elementwise_affine=True)
  )
  (decoder): TransformerDecoder(
    (embeddings): Embeddings(
      (make_embedding): Sequential(
        (emb_luts): Elementwise(
          (0): Embedding(259, 40, padding_idx=1)
        )
      )
      (pe): PositionalEncoding(
        (dropout): Dropout(p=0.3)
      )
    )
    (transformer_layers): ModuleList(
      (0): TransformerDecoderLayer(
        (self_attn): MultiHeadedAttention(
          (linear_keys): Linear(in_features=40, out_features=40, bias=True)
          (linear_values): Linear(in_features=40, out_features=40, bias=True)
          (linear_query): Linear(in_features=40, out_features=40, bias=True)
          (softmax): Softmax()
          (dropout): Dropout(p=0.3)
          (final_linear): Linear(in_features=40, out_features=40, bias=True)
        )
        (context_attn): MultiHeadedAttention(
          (linear_keys): Linear(in_features=40, out_features=40, bias=True)
          (linear_values): Linear(in_features=40, out_features=40, bias=True)
          (linear_query): Linear(in_features=40, out_features=40, bias=True)
          (softmax): Softmax()
          (dropout): Dropout(p=0.3)
          (final_linear): Linear(in_features=40, out_features=40, bias=True)
        )
        (feed_forward): PositionwiseFeedForward(
          (w_1): Linear(in_features=40, out_features=2048, bias=True)
          (w_2): Linear(in_features=2048, out_features=40, bias=True)
          (layer_norm): LayerNorm(torch.Size([40]), eps=1e-06, elementwise_affine=True)
          (dropout_1): Dropout(p=0.3)
          (relu): ReLU()
          (dropout_2): Dropout(p=0.3)
        )
        (layer_norm_1): LayerNorm(torch.Size([40]), eps=1e-06, elementwise_affine=True)
        (layer_norm_2): LayerNorm(torch.Size([40]), eps=1e-06, elementwise_affine=True)
        (drop): Dropout(p=0.3)
      )
      (1): TransformerDecoderLayer(
        (self_attn): MultiHeadedAttention(
          (linear_keys): Linear(in_features=40, out_features=40, bias=True)
          (linear_values): Linear(in_features=40, out_features=40, bias=True)
          (linear_query): Linear(in_features=40, out_features=40, bias=True)
          (softmax): Softmax()
          (dropout): Dropout(p=0.3)
          (final_linear): Linear(in_features=40, out_features=40, bias=True)
        )
        (context_attn): MultiHeadedAttention(
          (linear_keys): Linear(in_features=40, out_features=40, bias=True)
          (linear_values): Linear(in_features=40, out_features=40, bias=True)
          (linear_query): Linear(in_features=40, out_features=40, bias=True)
          (softmax): Softmax()
          (dropout): Dropout(p=0.3)
          (final_linear): Linear(in_features=40, out_features=40, bias=True)
        )
        (feed_forward): PositionwiseFeedForward(
          (w_1): Linear(in_features=40, out_features=2048, bias=True)
          (w_2): Linear(in_features=2048, out_features=40, bias=True)
          (layer_norm): LayerNorm(torch.Size([40]), eps=1e-06, elementwise_affine=True)
          (dropout_1): Dropout(p=0.3)
          (relu): ReLU()
          (dropout_2): Dropout(p=0.3)
        )
        (layer_norm_1): LayerNorm(torch.Size([40]), eps=1e-06, elementwise_affine=True)
        (layer_norm_2): LayerNorm(torch.Size([40]), eps=1e-06, elementwise_affine=True)
        (drop): Dropout(p=0.3)
      )
      (2): TransformerDecoderLayer(
        (self_attn): MultiHeadedAttention(
          (linear_keys): Linear(in_features=40, out_features=40, bias=True)
          (linear_values): Linear(in_features=40, out_features=40, bias=True)
          (linear_query): Linear(in_features=40, out_features=40, bias=True)
          (softmax): Softmax()
          (dropout): Dropout(p=0.3)
          (final_linear): Linear(in_features=40, out_features=40, bias=True)
        )
        (context_attn): MultiHeadedAttention(
          (linear_keys): Linear(in_features=40, out_features=40, bias=True)
          (linear_values): Linear(in_features=40, out_features=40, bias=True)
          (linear_query): Linear(in_features=40, out_features=40, bias=True)
          (softmax): Softmax()
          (dropout): Dropout(p=0.3)
          (final_linear): Linear(in_features=40, out_features=40, bias=True)
        )
        (feed_forward): PositionwiseFeedForward(
          (w_1): Linear(in_features=40, out_features=2048, bias=True)
          (w_2): Linear(in_features=2048, out_features=40, bias=True)
          (layer_norm): LayerNorm(torch.Size([40]), eps=1e-06, elementwise_affine=True)
          (dropout_1): Dropout(p=0.3)
          (relu): ReLU()
          (dropout_2): Dropout(p=0.3)
        )
        (layer_norm_1): LayerNorm(torch.Size([40]), eps=1e-06, elementwise_affine=True)
        (layer_norm_2): LayerNorm(torch.Size([40]), eps=1e-06, elementwise_affine=True)
        (drop): Dropout(p=0.3)
      )
      (3): TransformerDecoderLayer(
        (self_attn): MultiHeadedAttention(
          (linear_keys): Linear(in_features=40, out_features=40, bias=True)
          (linear_values): Linear(in_features=40, out_features=40, bias=True)
          (linear_query): Linear(in_features=40, out_features=40, bias=True)
          (softmax): Softmax()
          (dropout): Dropout(p=0.3)
          (final_linear): Linear(in_features=40, out_features=40, bias=True)
        )
        (context_attn): MultiHeadedAttention(
          (linear_keys): Linear(in_features=40, out_features=40, bias=True)
          (linear_values): Linear(in_features=40, out_features=40, bias=True)
          (linear_query): Linear(in_features=40, out_features=40, bias=True)
          (softmax): Softmax()
          (dropout): Dropout(p=0.3)
          (final_linear): Linear(in_features=40, out_features=40, bias=True)
        )
        (feed_forward): PositionwiseFeedForward(
          (w_1): Linear(in_features=40, out_features=2048, bias=True)
          (w_2): Linear(in_features=2048, out_features=40, bias=True)
          (layer_norm): LayerNorm(torch.Size([40]), eps=1e-06, elementwise_affine=True)
          (dropout_1): Dropout(p=0.3)
          (relu): ReLU()
          (dropout_2): Dropout(p=0.3)
        )
        (layer_norm_1): LayerNorm(torch.Size([40]), eps=1e-06, elementwise_affine=True)
        (layer_norm_2): LayerNorm(torch.Size([40]), eps=1e-06, elementwise_affine=True)
        (drop): Dropout(p=0.3)
      )
    )
    (layer_norm): LayerNorm(torch.Size([40]), eps=1e-06, elementwise_affine=True)
  )
  (generator): Sequential(
    (0): Linear(in_features=40, out_features=259, bias=True)
    (1): Cast()
    (2): LogSoftmax()
  )
)
[2019-04-28 18:44:39,544 INFO] encoder: 700952
[2019-04-28 18:44:39,544 INFO] decoder: 738211
[2019-04-28 18:44:39,544 INFO] * number of parameters: 1439163
[2019-04-28 18:44:39,546 INFO] Starting training on GPU: [0]
[2019-04-28 18:44:39,546 INFO] Start training loop and validate every 100 steps...
[2019-04-28 18:44:39,762 INFO] Loading dataset from IntrinsicTasks/Task1_Seq_Tree/Task1_Seq_Tree.train.0.pt, number of examples: 20888
…
