[2019-04-26 10:08:33,294 INFO]  * src vocab size = 256
[2019-04-26 10:08:33,294 INFO]  * tgt vocab size = 258
[2019-04-26 10:08:33,294 INFO] Building model...
[2019-04-26 10:08:36,172 INFO] NMTModel(
  (encoder): TransformerEncoder(
    (embeddings): Embeddings(
      (make_embedding): Sequential(
        (emb_luts): Elementwise(
          (0): Embedding(256, 40, padding_idx=1)
        )
      )
      (pe): PositionalEncoding(
        (dropout): Dropout(p=0.3)
      )
    )
    (transformer): ModuleList(
      (0): TransformerEncoderLayer(
        (self_attn): MultiHeadedAttention(
          (linear_keys): Linear(in_features=40, out_features=40, bias=True)
          (linear_values): Linear(in_features=40, out_features=40, bias=True)
          (linear_query): Linear(in_features=40, out_features=40, bias=True)
          (softmax): Softmax()
          (dropout): Dropout(p=0.3)
          (final_linear): Linear(in_features=40, out_features=40, bias=True)
        )
        (feed_forward): PositionwiseFeedForward(
          (w_1): Linear(in_features=40, out_features=2048, bias=True)
          (w_2): Linear(in_features=2048, out_features=40, bias=True)
          (layer_norm): LayerNorm(torch.Size([40]), eps=1e-06, elementwise_affine=True)
          (dropout_1): Dropout(p=0.3)
          (relu): ReLU()
          (dropout_2): Dropout(p=0.3)
        )
        (layer_norm): LayerNorm(torch.Size([40]), eps=1e-06, elementwise_affine=True)
        (dropout): Dropout(p=0.3)
      )
      (1): TransformerEncoderLayer(
        (self_attn): MultiHeadedAttention(
          (linear_keys): Linear(in_features=40, out_features=40, bias=True)
          (linear_values): Linear(in_features=40, out_features=40, bias=True)
          (linear_query): Linear(in_features=40, out_features=40, bias=True)
          (softmax): Softmax()
          (dropout): Dropout(p=0.3)
          (final_linear): Linear(in_features=40, out_features=40, bias=True)
        )
        (feed_forward): PositionwiseFeedForward(
          (w_1): Linear(in_features=40, out_features=2048, bias=True)
          (w_2): Linear(in_features=2048, out_features=40, bias=True)
          (layer_norm): LayerNorm(torch.Size([40]), eps=1e-06, elementwise_affine=True)
          (dropout_1): Dropout(p=0.3)
          (relu): ReLU()
          (dropout_2): Dropout(p=0.3)
        )
        (layer_norm): LayerNorm(torch.Size([40]), eps=1e-06, elementwise_affine=True)
        (dropout): Dropout(p=0.3)
      )
      (2): TransformerEncoderLayer(
        (self_attn): MultiHeadedAttention(
          (linear_keys): Linear(in_features=40, out_features=40, bias=True)
          (linear_values): Linear(in_features=40, out_features=40, bias=True)
          (linear_query): Linear(in_features=40, out_features=40, bias=True)
          (softmax): Softmax()
          (dropout): Dropout(p=0.3)
          (final_linear): Linear(in_features=40, out_features=40, bias=True)
        )
        (feed_forward): PositionwiseFeedForward(
          (w_1): Linear(in_features=40, out_features=2048, bias=True)
          (w_2): Linear(in_features=2048, out_features=40, bias=True)
          (layer_norm): LayerNorm(torch.Size([40]), eps=1e-06, elementwise_affine=True)
          (dropout_1): Dropout(p=0.3)
          (relu): ReLU()
          (dropout_2): Dropout(p=0.3)
        )
        (layer_norm): LayerNorm(torch.Size([40]), eps=1e-06, elementwise_affine=True)
        (dropout): Dropout(p=0.3)
      )
      (3): TransformerEncoderLayer(
        (self_attn): MultiHeadedAttention(
          (linear_keys): Linear(in_features=40, out_features=40, bias=True)
          (linear_values): Linear(in_features=40, out_features=40, bias=True)
          (linear_query): Linear(in_features=40, out_features=40, bias=True)
          (softmax): Softmax()
          (dropout): Dropout(p=0.3)
          (final_linear): Linear(in_features=40, out_features=40, bias=True)
        )
        (feed_forward): PositionwiseFeedForward(
          (w_1): Linear(in_features=40, out_features=2048, bias=True)
          (w_2): Linear(in_features=2048, out_features=40, bias=True)
          (layer_norm): LayerNorm(torch.Size([40]), eps=1e-06, elementwise_affine=True)
          (dropout_1): Dropout(p=0.3)
          (relu): ReLU()
          (dropout_2): Dropout(p=0.3)
        )
        (layer_norm): LayerNorm(torch.Size([40]), eps=1e-06, elementwise_affine=True)
        (dropout): Dropout(p=0.3)
      )
    )
    (layer_norm): LayerNorm(torch.Size([40]), eps=1e-06, elementwise_affine=True)
  )
  (decoder): TransformerDecoder(
    (embeddings): Embeddings(
      (make_embedding): Sequential(
        (emb_luts): Elementwise(
          (0): Embedding(258, 40, padding_idx=1)
        )
      )
      (pe): PositionalEncoding(
        (dropout): Dropout(p=0.3)
      )
    )
    (transformer_layers): ModuleList(
      (0): TransformerDecoderLayer(
        (self_attn): MultiHeadedAttention(
          (linear_keys): Linear(in_features=40, out_features=40, bias=True)
          (linear_values): Linear(in_features=40, out_features=40, bias=True)
          (linear_query): Linear(in_features=40, out_features=40, bias=True)
          (softmax): Softmax()
          (dropout): Dropout(p=0.3)
          (final_linear): Linear(in_features=40, out_features=40, bias=True)
        )
        (context_attn): MultiHeadedAttention(
          (linear_keys): Linear(in_features=40, out_features=40, bias=True)
          (linear_values): Linear(in_features=40, out_features=40, bias=True)
          (linear_query): Linear(in_features=40, out_features=40, bias=True)
          (softmax): Softmax()
          (dropout): Dropout(p=0.3)
          (final_linear): Linear(in_features=40, out_features=40, bias=True)
        )
        (feed_forward): PositionwiseFeedForward(
          (w_1): Linear(in_features=40, out_features=2048, bias=True)
          (w_2): Linear(in_features=2048, out_features=40, bias=True)
          (layer_norm): LayerNorm(torch.Size([40]), eps=1e-06, elementwise_affine=True)
          (dropout_1): Dropout(p=0.3)
          (relu): ReLU()
          (dropout_2): Dropout(p=0.3)
        )
        (layer_norm_1): LayerNorm(torch.Size([40]), eps=1e-06, elementwise_affine=True)
        (layer_norm_2): LayerNorm(torch.Size([40]), eps=1e-06, elementwise_affine=True)
        (drop): Dropout(p=0.3)
      )
      (1): TransformerDecoderLayer(
        (self_attn): MultiHeadedAttention(
          (linear_keys): Linear(in_features=40, out_features=40, bias=True)
          (linear_values): Linear(in_features=40, out_features=40, bias=True)
          (linear_query): Linear(in_features=40, out_features=40, bias=True)
          (softmax): Softmax()
          (dropout): Dropout(p=0.3)
          (final_linear): Linear(in_features=40, out_features=40, bias=True)
        )
        (context_attn): MultiHeadedAttention(
          (linear_keys): Linear(in_features=40, out_features=40, bias=True)
          (linear_values): Linear(in_features=40, out_features=40, bias=True)
          (linear_query): Linear(in_features=40, out_features=40, bias=True)
          (softmax): Softmax()
          (dropout): Dropout(p=0.3)
          (final_linear): Linear(in_features=40, out_features=40, bias=True)
        )
        (feed_forward): PositionwiseFeedForward(
          (w_1): Linear(in_features=40, out_features=2048, bias=True)
          (w_2): Linear(in_features=2048, out_features=40, bias=True)
          (layer_norm): LayerNorm(torch.Size([40]), eps=1e-06, elementwise_affine=True)
          (dropout_1): Dropout(p=0.3)
          (relu): ReLU()
          (dropout_2): Dropout(p=0.3)
        )
        (layer_norm_1): LayerNorm(torch.Size([40]), eps=1e-06, elementwise_affine=True)
        (layer_norm_2): LayerNorm(torch.Size([40]), eps=1e-06, elementwise_affine=True)
        (drop): Dropout(p=0.3)
      )
      (2): TransformerDecoderLayer(
        (self_attn): MultiHeadedAttention(
          (linear_keys): Linear(in_features=40, out_features=40, bias=True)
          (linear_values): Linear(in_features=40, out_features=40, bias=True)
          (linear_query): Linear(in_features=40, out_features=40, bias=True)
          (softmax): Softmax()
          (dropout): Dropout(p=0.3)
          (final_linear): Linear(in_features=40, out_features=40, bias=True)
        )
        (context_attn): MultiHeadedAttention(
          (linear_keys): Linear(in_features=40, out_features=40, bias=True)
          (linear_values): Linear(in_features=40, out_features=40, bias=True)
          (linear_query): Linear(in_features=40, out_features=40, bias=True)
          (softmax): Softmax()
          (dropout): Dropout(p=0.3)
          (final_linear): Linear(in_features=40, out_features=40, bias=True)
        )
        (feed_forward): PositionwiseFeedForward(
          (w_1): Linear(in_features=40, out_features=2048, bias=True)
          (w_2): Linear(in_features=2048, out_features=40, bias=True)
          (layer_norm): LayerNorm(torch.Size([40]), eps=1e-06, elementwise_affine=True)
          (dropout_1): Dropout(p=0.3)
          (relu): ReLU()
          (dropout_2): Dropout(p=0.3)
        )
        (layer_norm_1): LayerNorm(torch.Size([40]), eps=1e-06, elementwise_affine=True)
        (layer_norm_2): LayerNorm(torch.Size([40]), eps=1e-06, elementwise_affine=True)
        (drop): Dropout(p=0.3)
      )
      (3): TransformerDecoderLayer(
        (self_attn): MultiHeadedAttention(
          (linear_keys): Linear(in_features=40, out_features=40, bias=True)
          (linear_values): Linear(in_features=40, out_features=40, bias=True)
          (linear_query): Linear(in_features=40, out_features=40, bias=True)
          (softmax): Softmax()
          (dropout): Dropout(p=0.3)
          (final_linear): Linear(in_features=40, out_features=40, bias=True)
        )
        (context_attn): MultiHeadedAttention(
          (linear_keys): Linear(in_features=40, out_features=40, bias=True)
          (linear_values): Linear(in_features=40, out_features=40, bias=True)
          (linear_query): Linear(in_features=40, out_features=40, bias=True)
          (softmax): Softmax()
          (dropout): Dropout(p=0.3)
          (final_linear): Linear(in_features=40, out_features=40, bias=True)
        )
        (feed_forward): PositionwiseFeedForward(
          (w_1): Linear(in_features=40, out_features=2048, bias=True)
          (w_2): Linear(in_features=2048, out_features=40, bias=True)
          (layer_norm): LayerNorm(torch.Size([40]), eps=1e-06, elementwise_affine=True)
          (dropout_1): Dropout(p=0.3)
          (relu): ReLU()
          (dropout_2): Dropout(p=0.3)
        )
        (layer_norm_1): LayerNorm(torch.Size([40]), eps=1e-06, elementwise_affine=True)
        (layer_norm_2): LayerNorm(torch.Size([40]), eps=1e-06, elementwise_affine=True)
        (drop): Dropout(p=0.3)
      )
    )
    (layer_norm): LayerNorm(torch.Size([40]), eps=1e-06, elementwise_affine=True)
  )
  (generator): Sequential(
    (0): Linear(in_features=40, out_features=258, bias=True)
    (1): Cast()
    (2): LogSoftmax()
  )
)
[2019-04-26 10:08:36,173 INFO] encoder: 700912
[2019-04-26 10:08:36,173 INFO] decoder: 738130
[2019-04-26 10:08:36,173 INFO] * number of parameters: 1439042
[2019-04-26 10:08:36,175 INFO] Starting training on GPU: [0]
[2019-04-26 10:08:36,175 INFO] Start training loop and validate every 100 steps...
[2019-04-26 10:08:36,337 INFO] Loading dataset from IntrinsicTasks/Task2_Seq/Task2_Seq.train.0.pt, number of examples: 16000
…
